generator_denoising_5g.pth (torch, 270900 bytes, 8 tensors)

model.0.weight f4 [64, 2, 4]
00000000: 7adc babe 9ca0 37be 70f4 d9be 2616 a9be
00000010: 67c8 863d 3675 2bbc 8e91 9dbc 26e3 4bbd
00000020: 4a48 dfbe 1dd2 8d3e dc0d 58bd 4ceb 603e
00000030: f327 a4be 84cd 23bd 412d 3e3d a36f 793e
00000040: 67d6 fcbd 6883 80bb 259e b63e 33c4 0f3e
00000050: a580 19bd 9747 0dbe 07f6 d53e e57b 8bbe
00000060: 6356 f13d bcc7 b03c c998 b3be a87a 063e
00000070: c5e1 e9bd 9d7c 96bd 787a 40be 7ff9 8fbe
00000080: 7ce3 973c 357b 3a3f 8a27 f43c 806f 103d
00000090: cf40 00ba 66db 7dbb d49e f5bb 0034 b73b
000000a0: 27d9 8b3c 22cb b33e beeb 70be bdd3 62be
000000b0: 27dd 853d 1798 ec3c 7174 8fbe e52b 613e
000000c0: 0833 aabd bdce 7a3e 553a 653e 20b8 d93d
000000d0: 8e48 1ebe 5b66 27bd be9f 04be a00c 6ebd
000000e0: f394 383d 76d9 d03e 13f1 37be dc69 9cbe
000000f0: 36df 5dbe 2428 803d 685a 433e f299 babd
00000100: 56e3 1c3e d39b 993d 6ec6 c8bd 4bf1 1fbd
00000110: de1a 6ebe e50b 95be 932d 4a3e 575f 563e
00000120: 5f22 2c3e e25e 283e 8621 413e dde9 683e
00000130: 19c3 93bc b3b8 a93c 28e2 b0bc 3b60 a73d
00000140: f968 b6be 8290 b8be 6b15 9ebe 5b2c 423c
00000150: 9d25 093e d9e2 343e 6ff9 69be bf2c 92bc
00000160: d6e0 63be 4092 57be 5b70 773d b055 2e3e
00000170: ea5c 913e bb68 efbe 45ee 3cbd 283d 9d3e
00000180: 23f3 083e f2ab ac3e 8558 5ebe 665c 5ebe
00000190: 779b 053e fda4 a5be 625e 573e 3868 543d
000001a0: 05e8 803e e186 f8bd 1a14 82be fc14 0e3d
000001b0: cad4 4abc 4ea3 fa3c bdc7 a3be 1959 973e
000001c0: f183 66be 5c55 443d bc90 5c3e 1f1a 85bd
000001d0: c6be 103d 61c6 983e ac11 673e 7f4c 08bf
000001e0: 8af5 abbc b837 a9bc ca21 5fbc 1e9f 1abf
000001f0: 3e2d 173a 7c12 163b 2e15 a33a c5d6 d73b
00000200: 53db ad3b b02a 1dbc 3014 5bbb 0ee7 3fbc
00000210: 04bb 2cbc 2a9d 98ba 01e4 fa3e 59a0 9a3b
00000220: 2b46 a53e f69a 1b3e db1a 053f 91c7 de3e
00000230: 0b10 58bb b47b bfbc 6439 c1bc 8ddf 6b3d
00000240: 2a1f c0bd 76c0 3a3e 7766 e2bd 599f 0f3c
00000250: 8c54 e7bc c5e9 13be e6a9 07be 6b28 6cbe
00000260: e67e c03e 25f3 e43e 9c01 af3e cd5d 9cbd
00000270: a2e8 72bd 5caf d9bd b125 be3d fd86 963c
00000280: 9ce6 233e 61f9 923d dd81 08be 455c c0bd
00000290: f747 85bc 13dc 303e 54f2 273e bdd7 9abd
000002a0: b500 bb3c 8536 ecbd 678c 74bd 7e22 6a3d
000002b0: 4552 a93e 9d43 0e3f 9724 9c3e 0ba4 d43d
000002c0: f8e5 df3c 3448 003e 7947 79be e016 b8bd
000002d0: 1da2 313e 2363 923e 8100 853e 058c cb3e
000002e0: d870 0d3c 8c80 5cba a58e 403c 3ec3 56bd
000002f0: 150a 59be a215 a1be 1c63 afbe 7270 f9be
00000300: 4a9a 60ba 27da e63c 665f 1c3d 7dab a83c
00000310: 95fc c73d de07 a73d e832 1b3f 1840 3f3d
00000320: 2779 d13d ac89 53be b6dc 1c3e cbdb 31bd
00000330: 2422 f53d 36a0 ef3d 24fa 8e3d 86a5 043e
00000340: a43e 0f3f d512 3fbf 75d8 143e 1607 b53d
00000350: 9351 db3c fe9e 433d 55d2 15bd 3a99 bdbb
00000360: cc58 70be e020 773e 82f6 273c 55ea a8bc
00000370: 26d2 f2be 1cd0 0a3f 2e40 80bd fe8b b2bd
00000380: f6d5 8fbe f197 b5be 0034 b3be 0123 e0bd
00000390: cff6 863d 4f31 c93d 9881 813e 7ebb 433e
000003a0: 6714 1b3f c321 97be 29f7 7fbe d2a0 0d3c
000003b0: e971 2e3e f39a 973e 6e9d 71be f238 79be
000003c0: 4eab f43d 25c6 c6be 4c00 533e b847 c03d
000003d0: 326b a8be bb4a d3be 77e5 d13e f9cf 9b3e
000003e0: 71d2 743e caaf a33e e0ac 413e ffe7 853e
000003f0: 57c0 5a3e 2070 6f3e f95c 0b3e 944c 483d
-0.36496335 -0.17932361 -0.42569304 -0.3302471 0.065811925 -0.010464957 -0.019234445 -0.049777173
-0.4360984 0.27699366 -0.052747592 0.21964759 -0.3206173 -0.039990917 0.046429876 0.24358992
-0.123455815 -0.003921915 0.3566753 0.14039688 -0.0374762 -0.1379684 0.41789266 -0.27242962
0.11784055 0.021579616 -0.35077503 0.13132727 -0.11420015 -0.07347987 -0.18796718 -0.28120038
0.01854109 0.7284425 0.02980401 0.035262585 -0.000489247 -0.0038735508 -0.0074957404 0.0055909157
0.01707132 0.35115916 -0.23527429 -0.22151084 0.06536322 0.028881116 -0.28018525 0.219894
-0.08310515 0.24492927 0.22385533 0.10630822 -0.15457365 -0.0408691 -0.12951562 -0.05811751
0.045063924 0.4079091 -0.17963056 -0.30549514 -0.2166718 0.06257656 0.19077456 -0.09111394
0.15321097 0.07500424 -0.098034725 -0.039048474 -0.23252437 -0.29110637 0.19743948 0.20934807
0.16809987 0.16442445 0.18860444 0.22745462 -0.018037366 0.020717954 -0.021592215 0.081726514
-0.35626963 -0.3604775 -0.30875716 0.0118513955 0.13393255 0.1766466 -0.22849058 -0.017843602
-0.22253737 -0.21051884 0.060409885 0.17024875 0.283912 -0.4675959 -0.04612567 0.3071072
0.13374 0.33724934 -0.21713455 -0.21714935 0.13047586 -0.3235244 0.21032098 0.051857203
0.25177017 -0.12135101 -0.2540596 0.03468798 -0.012379834 0.030595448 -0.31988326 0.29560164
-0.22511269 0.047932968 0.21539587 -0.06499123 0.035338186 0.2983885 0.22565335 -0.53241724
-0.020991106 -0.020656452 -0.013618896 -0.60399044 0.00057669345 0.00228992 0.0012442225 0.006586882
0.0053056865 -0.009592697 -0.003342878 -0.011712803 -0.010542635 -0.0011643518 0.49002078 0.004718822
0.32280096 0.15195832 0.51994103 0.43511632 -0.0032968547 -0.023374416 -0.023586936 0.05758624
-0.09380944 0.1823748 -0.110547 0.008766019 -0.028238557 -0.14444645 -0.13248405 -0.23062293
0.37596816 0.44716755 0.34180915 -0.076350786 -0.059303887 -0.1062915 0.09284533 0.018374914
0.16005939 0.071764715 -0.13330789 -0.09392599 -0.016269667 0.17271452 0.16401035 -0.0756068
0.022827486 -0.11533836 -0.05970421 0.0571618 0.3307058 0.5557192 0.30496666 0.10382851
0.027331337 0.12527543 -0.24343671 -0.08988738 0.17346998 0.2859126 0.25976947 0.39755264
0.008632861 -0.0008411489 0.011752759 -0.05243229 -0.21195252 -0.31461817 -0.34255302 -0.487186
-0.0008567913 0.028180195 0.038176917 0.020589584 0.09764973 0.081557974 0.6062455 0.046691984
0.10228186 -0.20657986 0.1531857 -0.0434225 0.119694024 0.1170048 0.06981304 0.12953767
0.55954957 -0.7463811 0.14535697 0.08839242 0.026772296 0.04775905 -0.03657754 -0.0057860883
-0.23471373 0.24133635 0.010251643 -0.02061955 -0.47425956 0.542238 -0.06262241 -0.08718108
-0.28092927 -0.35467485 -0.3500061 -0.109441765 0.06590044 0.09823858 0.25294185 0.19114491
0.60578007 -0.29517946 -0.24996628 0.0086443 0.17035641 0.29610404 -0.23595211 -0.24338129
0.11946736 -0.38823047 0.20605582 0.09388679 -0.32894284 -0.41267952 0.4099538 0.30432108
0.23908402 0.31970054 0.18913603 0.2615356 0.21362434 0.23382616 0.13609685 0.048901156

model.0.bias f4 [64]
00000000: af34 c7be ae24 0a3e 9b2c 2abe 2800 253d
00000010: 009b 03bf 3f4e 043c f800 be3e f0d0 b7bd
00000020: 3af5 393e c878 e23e f13a 493c e849 413a
00000030: d7d8 de3d 39a1 773e b22c 5fbd cc02 dabe
00000040: 891f aabe afc5 59be 33aa ed3e 70b1 19be
00000050: 6060 023f e6a0 75be 7f4f 6cbe 878d e0be
00000060: 6581 a7be aaf0 e63e 90b3 cf3d caa9 8f3d
00000070: bd4e c5bc 78a1 9abd ba3b b7be d5e9 29be
00000080: aad5 663e 9590 02be 1fc4 c43e c529 9bbe
00000090: efae 82bd 298e 543e f8b3 99be f1b0 b3bb
000000a0: 9115 1bbc 1eee a3bd 7178 51bd e502 533e
000000b0: 1681 bf3e 3fcf 7bbe 8f8e 013f 8815 c53e
000000c0: 9b72 f43d bfef 50be 1ed1 07bf 260f 62be
000000d0: a133 c53e e7e0 88be f0e8 03be 6373 e4bb
000000e0: 968d 983e 791e 943d cb7a d93b 55ca e9be
000000f0: 38d1 bd3e 4656 37be f338 a43e f352 adbe
-0.38907382 0.13490555 -0.16618578 0.040283352 -0.51408386 0.008075296 0.37110114 -0.089753985
0.18159953 0.44232774 0.012282119 0.00073733786 0.10881203 0.24182595 -0.054485984 -0.4258026
-0.33227184 -0.21266817 0.46418914 -0.15009093 0.50928307 -0.23987159 -0.230772 -0.43857977
-0.32715908 0.45105487 0.10141671 0.070148066 -0.024085397 -0.07550329 -0.35787755 -0.16593106
0.22542444 -0.12750466 0.3843088 -0.30305305 -0.06381022 0.20757355 -0.30020118 -0.0054837395
-0.009465591 -0.080044016 -0.051140253 0.20606573 0.37403172 -0.24590777 0.5060815 0.3849299
0.11935922 -0.20403956 -0.5305346 -0.22076091 0.38515952 -0.26734087 -0.12881827 -0.006971763
0.29795521 0.07232375 0.0066369525 -0.4566218 0.37073684 -0.17904004 0.320747 -0.33852348

model.2.weight f4 [128, 64, 4]
00000000: 31ec 873d d601 38bb 5b80 6c3c d5eb 48bd
00000010: 7f3e 243d 7995 1b3d bcf4 ac3d 3033 6b3d
00000020: 6eda 2c3d 96fc 983d 5963 81bd e295 b2bd
00000030: 0e49 b13d 4b4a 803d 6654 55bd 7230 23bd
00000040: 30a3 be3d e6d2 443e cbe5 a8bd 747d bdbd
00000050: a171 993c eb98 2f3d 0e0e 10bd a746 57be
00000060: ee15 63bc da53 eb3c cd5d 413d 42ad bfbc
00000070: 66cb aebc 77da 8e3d 33b5 8dbd f1b3 1fbe
00000080: 334d 513d 2f56 3cbc 7a23 983d ce0a e6bb
00000090: fdb1 013c bf0d cd3c a2d0 0ebd ee67 96bc
000000a0: 9249 a83d 8963 513d d166 f53b 5c88 b4bd
000000b0: 44f5 983d d72b 29bd 58f5 053d a04c b7bd
000000c0: abb7 6e3d 8fc7 863d 7773 593a 775d 00bd
000000d0: f5a7 933d a3d2 ad3c 7f14 3bbc 55fd a2bd
000000e0: f292 cf3c 1064 963d e3b5 e43c 4e2c a8bd
000000f0: 08af 5dbe 427d 5f3e f092 8ebd a488 26bd
00000100: 299d 703d 3e74 78bb 3e19 0cbe 5876 20be
00000110: ad47 bc3d 9070 6e3d 8c76 4bbd ad41 4bbd
00000120: 23d1 8a3d 1ba2 283d f63f 0dbd b87e 603d
00000130: 3be3 663c 2c54 473d d3f1 ddbb d8e4 303d
00000140: 5a20 823c 22a6 68bd b722 15bc 235b 233d
00000150: 0199 c63d 13ea 2d3d 92b9 af3c 6359 4abd
00000160: 1c3d 913d 9343 8bbc 9bfe da3c 8956 8bbd
00000170: 6398 b83d 846c cfbd d4f7 0cbe 8932 7dbd
00000180: a4d7 08bc a281 c23b 048e edbd cc32 b63a
00000190: c1ea 3c3d 5c4d d83c 7fb7 1d3d 25c3 82bd
000001a0: d529 013e 59c1 77bd e0ec 16bc 0a47 75bc
000001b0: 2ae8 d93d 8b43 2fbc 01a8 d1bc f626 26be
000001c0: be11 333c 66aa 323d e047 623d d97f 65bc
000001d0: 1d09 323d 8101 d3bd 3022 6abd db65 cebd
000001e0: 28c3 0d3d 9cc8 05bd fba6 91bc d341 24be
000001f0: 7305 673d f31e 2cbb 5ef8 8f3a 6118 773c
00000200: 2dc0 f03c 5bf8 f63c b719 7e3c 5eb5 80bd
00000210: 862b 803d 57ff 593d 020c 09bd 2c91 25be
00000220: 3375 05bd b0ff df3c 6723 b43b e817 39bd
00000230: 45f4 893c 7908 053d dfea 93bd 8e93 97bd
00000240: 853b 053e 47f1 683c f325 2cbd 1abb b1bd
00000250: 4df9 9e3c 48c4 313c ebe1 1ebc dab9 a5bb
00000260: 1dc4 043e 6f56 b33d c432 eebd bd4d 24be
00000270: 86a9 c03a ee90 153b f2c3 e3bb 8b38 1abd
00000280: 5007 ad3d cf75 093a f214 fabb 13c4 3fbd
00000290: 5fad 0cbc 5962 c93c 7d7f 27bc e9a7 80bd
000002a0: ca57 663d 3b6f 7d3d 501b 01bd 92cf 30be
000002b0: 9a39 e73c 16e2 78bc 4b08 113d 5ac9 a0bc
000002c0: 8690 023d 8413 bbbc 66e4 0fbd 5f31 15bc
000002d0: 501c ff3d 69f9 c23d 69f2 4fbd e23d 58be
000002e0: 1d7b 423d 9289 23bd 621c 043d 4244 1bbd
000002f0: 420d 883d ccde 16bd 0941 4bbd 2029 b9bc
00000300: 75ba bb3d f880 923d 07c4 5dbc 2c2f bbbc
00000310: 846f 713d c6d5 93bb c907 823c d164 133c
00000320: f470 553d 34d7 9e3c c27e d4ba d5c7 903d
00000330: 0db5 23be 8d50 eb3d 650f 2dbe af72 59be
00000340: 462d edbc a0de 0f3d df4c 863c f95d 47bc
00000350: 8f0f 1dbd 02f4 893d 99a2 6abe e249 21be
00000360: 5dba beba 13b6 95bc 68b3 00bd 6748 1abd
00000370: 7203 f73d 2471 c53d 03ef 8dbd 60ba a8bd
00000380: dade b8bd 3f21 273d 8275 23bc d937 3fbd
00000390: 14f4 c23d dbff 503d 8543 c8bc 60e9 eabd
000003a0: 17fa 703d 2a87 183d f3fe 8fbd 8b65 bfbd
000003b0: 80c5 643c 9c3e cb3d c0f6 bbbc 0288 29be
000003c0: ca72 c2bc 9dd2 53bd 08b0 14bc a441 6f3d
000003d0: 9970 01bc c729 bcbd 64ed 6ebd b88c e1bd
000003e0: 4233 623d b908 ae3c c705 19bd a634 dbbc
000003f0: 1640 dc3d c00b 9a3d d484 6dbd cdd4 0dbe
0.06636847 -0.0028077266 0.014434899 -0.049053032 0.040098663 0.037984345 0.08445117 0.057421863
0.0422005 0.07470052 -0.06317777 -0.08719994 0.08656512 0.0626417 -0.05208244 -0.039841123
0.09308469 0.19221076 -0.082469545 -0.09252444 0.01873094 0.042870443 -0.035169654 -0.21023045
-0.013860209 0.028726507 0.047208596 -0.023398045 -0.021337222 0.069752626 -0.06919327 -0.15595986
0.051099014 -0.011495157 0.074286416 -0.007020331 0.007915971 0.025030969 -0.034866937 -0.018360104
0.082171574 0.051120315 0.0074890633 -0.08815071 0.07468656 -0.041301575 0.03270468 -0.08950162
0.05828063 0.065810315 0.00082950987 -0.031339135 0.0720977 0.021218603 -0.011418461 -0.079584755
0.025338624 0.07343304 0.027918762 -0.082115754 -0.216488 0.21825126 -0.0696162 -0.040657654
0.05874363 -0.0037911083 -0.13681504 -0.15670145 0.091933586 0.058212817 -0.049673602 -0.04962318
0.06778171 0.04117022 -0.034484826 0.05480835 0.014092262 0.048664257 -0.0067732125 0.043186992
0.015884567 -0.05679906 -0.009102515 0.039881837 0.09697152 0.04245956 0.021450792 -0.049401652
0.07091734 -0.016999995 0.026732733 -0.06803615 0.090134405 -0.101281196 -0.13766414 -0.061815772
-0.008352194 0.0059358636 -0.11599353 0.0013900637 0.046122316 0.026404075 0.038505074 -0.06384877
0.12613614 -0.060487125 -0.009211749 -0.01497055 0.10639985 -0.010697256 -0.025592806 -0.162258
0.010929523 0.043619536 0.055244327 -0.014007532 0.043465722 -0.10303021 -0.05716151 -0.10078021
0.034609944 -0.03266202 -0.017779818 -0.16040735 0.05640168 -0.0026263564 0.0010984053 0.015081496
0.029388512 0.030147722 0.015509061 -0.06284593 0.062583014 0.053222027 -0.033458717 -0.1616866
-0.032582473 0.027343601 0.0054973844 -0.045188814 0.01684011 0.032478783 -0.072225325 -0.07401191
0.13010986 0.014217681 -0.04202838 -0.08678265 0.019405985 0.01085002 -0.009697418 -0.0050575556
0.12965436 0.0875672 -0.116307765 -0.1604528 0.001469896 0.002282198 -0.0069508487 -0.03765158
0.084486604 0.000524369 -0.0076318914 -0.04681785 -0.008586257 0.024583029 -0.010223267 -0.06282026
0.056236066 0.061873656 -0.031520188 -0.17266682 0.028225709 -0.015190622 0.0354083 -0.019627262
0.03187611 -0.022836454 -0.035129927 -0.009106009 0.12456572 0.095202275 -0.05076829 -0.21117356
0.04748069 -0.03992612 0.03225363 -0.037906893 0.06643154 -0.03683357 -0.04962257 -0.022602618
0.09166423 0.07153505 -0.013535506 -0.022849642 0.05894424 -0.0045115678 0.015872853 0.0089962045
0.052109674 0.019389726 -0.0016212093 0.07069365 -0.15987034 0.11489973 -0.16900404 -0.21235155
-0.028952252 0.03512442 0.016394077 -0.012168401 -0.038344916 0.06735994 -0.22913589 -0.1575084
-0.001455139 -0.018275296 -0.031421095 -0.037666705 0.12061204 0.096407205 -0.069303535 -0.08238673
-0.090268806 0.04080319 -0.0099767465 -0.04668412 0.095192105 0.051025253 -0.024446258 -0.11470294
0.058832254 0.037238277 -0.070310496 -0.0934554 0.013963103 0.09924051 -0.022944808 -0.16555789
-0.023736376 -0.05171453 -0.009075172 0.05841221 -0.0079003805 -0.09187656 -0.058331862 -0.11013168
0.055224665 0.021244394 -0.037359025 -0.026758503 0.10754411 0.075217724 -0.057988003 -0.13850708

model.2.bias f4 [128]
00000000: 2852 94bc a3ab 5b3d 5a98 58bc 93de bcbc
00000010: 9291 65bd 59f4 fa3c c465 b4ba dcbf 533d
00000020: 1c5d dabc d1ee 0ebd 9ae3 9d3d c16b 043d
00000030: d092 d13d 69ad 87bd 43a7 bfbd 5527 8d3c
00000040: 5e5a e7bc a909 033d 9b97 9d3d bfb6 803c
00000050: 156b 1dbd 0e69 3a3b 0337 683d 48a2 133d
00000060: 1c51 e8bc 2f2d e63c 485f c13d 2baa 8b3c
00000070: 0483 98bc c12f 553d 16c4 acbd 591c 3b3d
00000080: 9444 333d 5bb4 d8bd acd0 07bd b1dc 0d3a
00000090: 249d 96bd 7a04 c43d a11c cf3d ca51 8cbc
000000a0: 864c 3b3b 79c3 75bd 7162 50bd 187f e63c
000000b0: 0b0d 523d 5210 a8bb f771 89bc 31ef 94bd
000000c0: 044b 9f3c 5cb2 dfbb 9336 2bbd 3487 adbc
000000d0: 938f 22bd 24cd 70bc 7fe3 86bd 0815 213d
000000e0: b58c 9fbc f008 7b3d 6bbe 68bb bb96 40bd
000000f0: e43b 2d3d 7609 953d 1ff0 a83a dc27 153d
00000100: 54e8 3bbd db1f 26bd 15e7 c5bd 519f 233d
00000110: 583d 55bd d0b9 cdbd 3047 91bc 481d aa3d
00000120: 56e0 ae3d e332 ed3c a3fa ef38 843f 37bd
00000130: 0bf4 d7bc 0a49 68bd 1420 663d 1d81 8c3c
00000140: 48af 6b3d 9717 77bd 2d68 863c 3f67 533d
00000150: 2cf0 843c 10ea d9bc d3d7 503d 7994 da3b
00000160: 6339 adba 9b7f f4bc 19d0 a93d 1edd 853d
00000170: 130e 173d 72d6 083d 4385 20bd 4455 493d
00000180: aa4d 313d be45 5abd 3622 d1bc 317e 0dbd
00000190: 649e 5ebd 5016 af3c 4dba 2dbd 3bd5 a73c
000001a0: 017c 92bd ac2f 31bd e727 893d cf4b 9f3d
000001b0: 5c81 1abc 2084 3dbd 33b9 88bd 2bf3 983d
000001c0: c5ca 8bbc 717a 81bd b9a8 dd3c 926e bebc
000001d0: 2265 f8bb 1ca5 cd3b eb4b 053d a4de 483d
000001e0: 1025 d3bd 1616 943c 7f53 6ebc 3b21 a5bc
000001f0: 9d99 ff3c bc97 2fbd 1f8f 103d c138 80bc
-0.018105581 0.053630482 -0.013219917 -0.02305535 -0.05604703 0.030634092 -0.0013763239 0.051696643
-0.026655726 -0.03489572 0.07709427 0.032329325 0.102330804 -0.06624872 -0.093580745 0.017230669
-0.028241333 0.031991635 0.07694932 0.01571214 -0.0384322 0.0028443965 0.05669309 0.036043435
-0.028358988 0.028097717 0.094420016 0.017048916 -0.01861716 0.052047495 -0.08435838 0.04568133
0.043766573 -0.10581275 -0.03315799 0.0005411609 -0.07354191 0.09571166 0.101128824 -0.017128844
0.0028579547 -0.06000087 -0.05087513 0.028136775 0.05128197 -0.0051288987 -0.016777975 -0.07272185
0.01944495 -0.006826682 -0.041800093 -0.021182634 -0.039687704 -0.014697347 -0.0658636 0.039326698
-0.019476274 0.06128782 -0.0035513889 -0.047018748 0.042293444 0.07277195 0.0012888944 0.036414966
-0.045875862 -0.040557723 -0.09663216 0.039946858 -0.052060455 -0.100452065 -0.01773414 0.08306366
0.085388824 0.028954929 0.00011443093 -0.044738308 -0.026361486 -0.05671028 0.056182936 0.01715141
0.057540208 -0.06032523 0.016407097 0.051612135 0.016227804 -0.026600868 0.050987076 0.0066705314
-0.0013215955 -0.029846003 0.082916446 0.065363154 0.036878657 0.033407636 -0.03918959 0.04915358
0.043286957 -0.053289168 -0.025529008 -0.034544174 -0.05435027 0.021372944 -0.042414 0.020487418
-0.07152558 -0.043258354 0.06697064 0.07778131 -0.009430256 -0.046268582 -0.06675949 0.074682556
-0.017064461 -0.06322182 0.027057992 -0.023246083 -0.0075804153 0.006275786 0.032543104 0.04904045
-0.103098035 0.018076938 -0.014546274 -0.020157447 0.031201178 -0.042869315 0.03529274 -0.015652062

model.4.weight f4 [128, 64, 4]
00000000: 5cde 913c 0fd0 36bc 3217 633d 0210 fd3c
00000010: f9ea c6bc 55aa 203d 39fd 513d f18a f3bb
00000020: b2e2 9f3d efc0 f73c 4772 843d 2084 d93d
00000030: fd9d 683d 7c0f c33d db55 8b3d dc53 353e
00000040: 5bba 063c 1953 4b3d 533c 583c 24d5 e13d
00000050: 3076 c33c 906d 48bd 856b 513c 2f15 873c
00000060: 8cbb 8dbd 63fb 6c3c 427d c2bc d4a9 223d
00000070: 566a 323d 80bc 13bd 18fc 0f3d 14fa 8bbc
00000080: d9d7 353c 0187 37bd 87d4 143d ece1 d73d
00000090: 64b8 043c a9eb aebc 74d9 83bd 1241 583c
000000a0: cec9 2bbd 3592 1dbc ec6f 33bd 12c8 21bc
000000b0: 0dd7 03bd 5477 a1bc 5493 56bd 4e95 1f3a
000000c0: 7f7f 1a3d 8901 093d 8da1 c83d 2c30 72bc
000000d0: 2599 153a c7f8 89bc 37f7 083d 380c 2a3e
000000e0: 20ae 3ebd 4e3a e0bc 6c16 a5bb b8a4 ce3d
000000f0: 54ef 183d d529 333d fb7d 183d bef1 013e
00000100: cce8 c13c 5157 f4bd fe86 853a 3dbf cd3d
00000110: 24b7 913b fe7f 1abd fde9 873d 381e 213e
00000120: 81a6 db3b eee5 063d 70cd 9b3c 617e 143d
00000130: 663d 32bd 15d2 3d3c 0252 9d3c 457b 1dbd
00000140: 9e0e ba3a caa6 3cbd 6927 413d 1f21 93bc
00000150: b7df 283c 922f 52bd d349 24bc c3f2 22bd
00000160: 529c d6bc 4e80 943c 44f5 4f3b 0d70 383e
00000170: 1708 7c3c b75f 8c3d 4799 133d 306e 003d
00000180: cc00 903d 21a0 e83c 0572 a03d 7197 4bbc
00000190: 3004 6fbd e637 523d 11ac d23c 5930 993c
000001a0: 6270 7fbd 48e0 a7bb 0bac 943c a354 ac3d
000001b0: c9ac ccbc d604 14bc 4df9 083d 8a28 bfbc
000001c0: dbc1 533d 3c06 e2bc d9d7 383d 39f5 e6bc
000001d0: 624d 493c 4a31 b8bd 2218 9c3c ea01 bd3d
000001e0: 3196 a4bd 903a fbbc 3cb2 31bd c7a5 d23d
000001f0: 5bde 7dbd cf04 59bc e487 9abb 944a 143d
00000200: 2d3c 70bd 2671 69bd f3e8 593d 5a66 7b3d
00000210: 995d f0bd 3449 d7bc de66 d6bc 512a a43d
00000220: e392 5fbc 1565 583c 1543 2fbd 80f8 d93b
00000230: c936 55bd f13c 4cbd 90f2 5e3d 6608 ecbd
00000240: 7212 0bbd 81c8 c6bd 3486 d63d 0da9 a23d
00000250: eb45 ac3c b4bb 573c a9d8 afbd ddd3 583d
00000260: f631 65bd 3010 263d e564 f33c a542 8d3b
00000270: dac4 d03d 81d5 84bd 4203 d13d c131 853d
00000280: 9b03 84bc 62ad 8ebd cafb a03d 6698 c83d
00000290: 935b 8bbd 2458 d53d ce18 9d3d a817 153e
000002a0: 2935 b83b 468e 7bbc e908 2f3d 2011 633d
000002b0: 7cb4 2b3b a2cd d93b cf30 62bd 9eca 283d
000002c0: 6662 bd3d e2fe b4bc 12dd 1ebc 7628 333c
000002d0: 923f 89bb 14d7 a63d b433 9aba b633 653d
000002e0: 105f a63d 032d 92bd 11bf 5b3c e18b 003d
000002f0: 3cff debb da71 48bc d861 b53d b3fd cd3d
00000300: e4a8 6fbc d503 82bc fb63 09bd ffe9 7fbc
00000310: 3dc8 fd3b a067 98bd de5c afbb 63ea 343e
00000320: 81a9 39bc 5faa 5a3d c867 bbbc a3ca 103b
00000330: 69fe 023d 92c1 31bb 96a6 ba3d 568e 163e
00000340: 0a42 13bd fe94 2f3c c1e2 6d3d decc 313c
00000350: 2d04 313c 70eb c23c 6987 163b aa9c d73c
00000360: aa60 1b3d ab4e 013d a069 d93d 9d9e 533d
00000370: 65e5 a33d 5ec9 b23c 06e8 5abd c8bf a53b
00000380: ef1a 2b3d d166 e2ba effb b03d 6bec 603c
00000390: b891 bcbc ace2 533d 5027 433d 531c a73b
000003a0: 1ee7 8cbc 6053 043b 10ba bd3d 3040 893c
000003b0: 056a 66bd c9ea e1bb a8ce 363c 0f6d 7d3d
000003c0: f824 45bd e600 f6bc 2df4 5cbd e864 77bc
000003d0: 607f 6a3c b777 20bd 1334 023d 363b 0f3d
000003e0: bf0f a8bd 9488 233d 3657 cb3c da08 823d
000003f0: 6a55 723c 731c 2b3c 7e36 94bb 00dc 9a3d
0.017806225 -0.0111580035 0.055442043 0.030891422 -0.024281966 0.03922494 0.051266883 -0.0074323346
0.078069106 0.030243365 0.06467109 0.10620904 0.056791294 0.09524438 0.06803485 0.17707771
0.008223142 0.049639795 0.013197976 0.110269815 0.023860067 -0.048932612 0.012781982 0.016489593
-0.06920537 0.014464232 -0.023741368 0.039712742 0.04355844 -0.03606844 0.035152525 -0.01708702
0.011098825 -0.044806484 0.036335494 0.10541138 0.008100603 -0.021352606 -0.0643796 0.013199108
-0.041940503 -0.009617378 -0.04380791 -0.009874361 -0.03218751 -0.01971022 -0.052386597 0.0006087617
0.037719246 0.03344873 0.09796438 -0.014781993 0.0005706719 -0.01684226 0.033438887 0.16606224
-0.046552777 -0.027371552 -0.0050380733 0.10090011 0.037337616 0.043741066 0.03722952 0.12689874
0.023670577 -0.11930717 0.0010187326 0.100462414 0.004446881 -0.03771972 0.066364266 0.15734184
0.0067031984 0.03293412 0.019018859 0.036253337 -0.043515585 0.011585732 0.019204143 -0.038447637
0.001419503 -0.0460575 0.047156725 -0.01796013 0.010307244 -0.051314898 -0.010027367 -0.039782297
-0.026197586 0.018127587 0.0031731883 0.18011494 0.015382788 0.06854194 0.03603485 0.031355083
0.07031402 0.028396668 0.078342475 -0.012426243 -0.058353603 0.05132284 0.025716813 0.018699812
-0.062363036 -0.005123172 0.018148443 0.08414581 -0.024984734 -0.009034356 0.033440877 -0.02333476
0.051698547 -0.027590863 0.045127723 -0.028193103 0.012286516 -0.08993776 0.019054476 0.09228881
-0.08036459 -0.030667573 -0.04338287 0.10285526 -0.061979633 -0.013245775 -0.0047159065 0.036203936
-0.058651138 -0.056992672 0.053200673 0.061376907 -0.11736602 -0.026280023 -0.026172098 0.08015884
-0.01364586 0.013207694 -0.042788584 0.006651938 -0.0520542 -0.049862806 0.054430544 -0.115250394
-0.033953138 -0.09706212 0.10474816 0.079424 0.021029433 0.0131673105 -0.085862465 0.052936424
-0.05595585 0.04054278 0.029711196 0.004310923 0.101937965 -0.06486035 0.102056995 0.065036304
-0.016115 -0.06966664 0.07860525 0.09794693 -0.06804576 0.10417202 0.07670747 0.14559805
0.0056215716 -0.015353745 0.042733107 0.055436254 0.0026200106 0.006646828 -0.05522233 0.041208856
0.09247284 -0.022094194 -0.009696262 0.01093494 -0.0041884864 0.08146492 -0.0011764676 0.05595752
0.081236005 -0.071374916 0.013412253 0.0313834 -0.0068053287 -0.012234176 0.08856553 0.10058155
-0.014627669 -0.015870968 -0.033542614 -0.015619754 0.0077448175 -0.0744164 -0.005351647 0.17667536
-0.011331917 0.053385135 -0.022876635 0.0022093437 0.031980906 -0.0027123434 0.09113805 0.14702734
-0.03595165 0.010716675 0.058077578 0.010852067 0.010804218 0.023793906 0.0022968894 0.02631982
0.037933983 0.031569164 0.106158495 0.051664937 0.08002738 0.021824535 -0.05344393 0.0050582625
0.041773733 -0.0017273073 0.086418025 0.013728241 -0.023018703 0.051729843 0.047644913 0.005099812
-0.017200049 0.0020191297 0.09264004 0.01675424 -0.05625345 -0.0068944436 0.011157669 0.061871585
-0.04813096 -0.030029725 -0.0539438 -0.0150997415 0.014312595 -0.03917667 0.031787943 0.034968577
-0.08206128 0.039925173 0.024821859 0.063493446 0.014790872 0.010443795 -0.0045230975 0.07561493

model.4.bias f4 [64]
00000000: cdb9 86bb c136 32bd a97d 57bd 6152 733c
00000010: 40ec a4bd 99f2 20bb 6b52 b13d e351 22bd
00000020: ea67 60bd a383 dabc fae0 513d 69f2 603d
00000030: c005 f43c 158b 3bbd 3986 d9bc 221a 1c3d
00000040: cd19 80bd 792b 553c fb84 0fb9 6ef5 d33a
00000050: 9589 9a3c d887 043d 797c f1bb 5161 8fbd
00000060: f905 cdbc aea9 633c 64ee 643d 7e45 aabc
00000070: 957e 5d3d e4c0 58bd 6eb2 e9bb bfd5 56bd
00000080: 009d 9fbd 07e7 a8bd e77b d43c aa6b 073c
00000090: f10d 82bd 15e4 94bc b8b7 9a3c 096d 99bc
000000a0: d34e eabc 6592 a9bc 5cc4 81bd 8bad 5c3d
000000b0: a44d 77bb 6f9d 863b 367b 03bd 6dc8 91bc
000000c0: 3f3e 213d 8f56 80bd b59e 823d 973d 47bd
000000d0: d002 1ebc 897f 0ebd c88a 8c3c 33e0 e8bc
000000e0: c410 0f3d 6913 1e3c 542b 7c3d 845a 8abc
000000f0: f9e9 893d 7718 2f3c ed1a 9abd 5b1c 92bc
-0.0041115046 -0.04350925 -0.052610073 0.014851184 -0.080528736 -0.0024558662 0.08658298 -0.039628875
-0.0547866 -0.026674097 0.051239945 0.05491868 0.029787898 -0.045786936 -0.02655326 0.03811086
-0.06254921 0.013010853 -0.00013687082 0.0016171166 0.018864432 0.032356113 -0.0073695746 -0.070009835
-0.025027262 0.013895435 0.05589141 -0.02078509 0.054075796 -0.05291833 -0.007131866 -0.052449938
-0.07793617 -0.0824719 0.025937987 0.008265415 -0.06350315 -0.018175164 0.018886432 -0.01872875
-0.02860204 -0.02069969 -0.06336281 0.05387644 -0.0037735486 0.004108123 -0.032099925 -0.017795766
0.039366003 -0.0626651 0.06377927 -0.04864272 -0.009644225 -0.034789596 0.01715602 -0.028427219
0.0349281 0.009648182 0.06156476 -0.016888864 0.0673408 0.010686985 -0.07524667 -0.017835787

model.6.weight f4 [64, 2, 4]
00000000: 6938 19bd 1c47 a1be 16c3 b4be 589a 8ebe
00000010: 95e6 5c3e 9999 57be f145 a5be 034b 15be
00000020: f57d 4b3d 4e5e 873d ec2b 50be 32c8 31be
00000030: ba36 a6be ecaa f1be ba12 e6be 5692 acbe
00000040: d2d5 9b3e f994 7e3d 99b8 6c3b 446c 133f
00000050: d937 8a3e efb5 94be b30c 2a3e a739 a7be
00000060: bdc2 c5bd c9d8 113f 522f 92be 9905 91bc
00000070: c9e1 01be 5e29 5cbe f96a 8abe 4d93 df3d
00000080: f2fc f3be defd ca3d 895e 98bd ce70 743e
00000090: 8abc e33e 7dd4 b13e 6f1b b9bd 44eb 95be
000000a0: 3684 0c3e bbc3 ff3d 10ad 2bbd cc8a 663e
000000b0: 4757 6bbe 5aca a1bd 2230 a83a d586 9dbd
000000c0: 48c2 933c 43f4 443e cef4 2e3f ef16 803e
000000d0: 91a8 be3c d08e 683c 6433 183e 9096 0c3e
000000e0: 773d 293e 1e2f fd3c 6387 513d c2dc 443d
000000f0: df9f 97be 0d1e b4be f6fa 9d3b 6557 9a3e
00000100: 34da 19be 5239 b43d a96a 80bd 4d0e 9f3e
00000110: 6d40 a6bd 9a4d a13e 452a 3fbe d173 cd3e
00000120: 47fc 9b3c 56aa efbc 9922 20bd 01cf 1f3d
00000130: c167 303e e417 803f c8e0 2940 2688 283f
00000140: b8e8 8ebe 7b5a e1bd fdac 97be cd53 11be
00000150: c8a5 a63e f09a 453e 6502 543e f36c 64be
00000160: e38e 2c3d 42a0 e4bc 5365 703d f509 63be
00000170: 06ee 0abe 3852 a3be c042 a7be 1fea 61be
00000180: 5747 8d3d ea72 7cbe 3025 e43d aa59 143e
00000190: 508f f83c 46e7 d3bd a4a2 b83e e790 303e
000001a0: 05f2 2fbe 8935 b5bd 0ca5 90be 82a6 e53e
000001b0: c1e5 dcbe aaa2 3a3e 148e 9a3e ba03 b6be
000001c0: e08e 58ba 2269 adbe f6fc 843d 4820 3ebe
000001d0: f93a b03e 4f55 863e 8ee5 8a3c cc7c 113e
000001e0: 5494 5ebd 57be 523e 0d81 7cbd 079f a5be
000001f0: 5125 963e 9854 6ebe b84c 513e e43d 62be
00000200: b37b d43e 6b72 0abf ffeb e3bd 3d5d 29bf
00000210: 75e7 cdba fab3 cbbc 3cc4 05bb 1647 943d
00000220: d69c 12bd 3af6 d03d bbfe b93e be9f 01bf
00000230: f976 01be b60b ae3d 12dc 3abe 2c1a 6bbe
00000240: 4458 dd3c f447 333e c7ab 75be fefc a8be
00000250: 02a7 643e 2a87 a13e fc84 983e d912 173c
00000260: bd60 1a3d 9e93 a73c 9977 a3be 0ef5 2dbe
00000270: b1be 9e3e 69bb b83e c993 ba3e 4569 803e
00000280: 74be 893e 1269 a3be 22ea 1cbe c667 80be
00000290: fbbf 6abe b9dc 88be 57cc acbe 7a76 8fbe
000002a0: 8f73 d0bd 4923 c33e 6433 90be 4170 233e
000002b0: c0ee 30be d9f3 283e 2b8e e6bd e6c0 753e
000002c0: cda0 86bc c116 2c3d 7e7a 203d 2527 c2bd
000002d0: 99a7 fcbe af84 333f a9f3 6f3e ab39 d4bd
000002e0: 4ef5 e7bd 7e6e 4f3d 8f3f a9bc 4d12 1dbd
000002f0: c707 85be c1bb 9bbe 73b1 22bd 8f27 6ebe
00000300: 032d edbd ca17 8b3e 579f d23e 7a30 863e
00000310: b905 8c3e b415 ad3c 4ca9 06be 27dc 8e3e
00000320: 1176 863e db12 9d3e 35a1 523d cd93 8f3e
00000330: 7b71 13be 893b 1abe 890c 703e 58ab 5c3d
00000340: 75e6 8abb 4959 86be a756 8c3d 6ac2 103e
00000350: 835f e53d ddde 79be 20e4 40bc e46f 603e
00000360: 8f18 f9bd eea6 bc3e 3140 3c3e 8735 aa3e
00000370: 8837 26be 9ef1 5c3e 74ba b2be 77c4 40be
00000380: d188 26be dd79 a53e 4582 c33e 5472 633e
00000390: 458b a5be 3d40 afbe 2c5b 1f3e 8531 75bc
000003a0: 0df9 d13e a022 0ebf 559d 753d b57c 9f3e
000003b0: bf79 dabd 2f37 6ebe 811d ca3d 496d 15bd
000003c0: 44be ae3d 9a03 0ebe 9daa f9bb 2e21 083d
000003d0: 1616 c93e 6dbe 39bf 4186 183d 1bec 633d
000003e0: 16b8 393e dd96 32bd 7b4f 78be 56de 943d
000003f0: 9743 2b3f 7bfe 2abe 3b4d e4be 4dfa a63e
-0.037407313 -0.31499565 -0.3530509 -0.2785213 0.21572335 -0.21054687 -0.32279924 -0.14579396
0.04968067 0.06609784 -0.20329255 -0.17361525 -0.32463628 -0.47200716 -0.44936162 -0.33705395
0.3043657 0.06215379 0.003612077 0.57587075 0.26995733 -0.29045054 0.16606407 -0.32661173
-0.09656284 0.5697141 -0.28551728 -0.017702864 -0.12683786 -0.21500155 -0.2703474 0.10916767
-0.4765392 0.099117026 -0.07439906 0.23871157 0.4447978 0.34732428 -0.09038436 -0.29281056
0.1372231 0.124885045 -0.041913092 0.22513884 -0.22982512 -0.078999236 0.0012831728 -0.07691733
0.018036976 0.19233803 0.6834229 0.25017497 0.023273738 0.014194205 0.14863354 0.1372931
0.16527353 0.030906256 0.051154505 0.048062094 -0.2961416 -0.35179177 0.0048211766 0.30144802
-0.15024644 0.087999955 -0.06270344 0.31065598 -0.08117757 0.31504518 -0.18668468 0.40127423
0.019041194 -0.029256027 -0.039095495 0.039015774 0.17227079 1.0007291 2.6543446 0.65832746
-0.27911925 -0.11003586 -0.29624167 -0.14192124 0.32548356 0.19297385 0.20704038 -0.22307186
0.042128455 -0.027908448 0.05869038 -0.22171767 -0.13567361 -0.31898665 -0.32668114 -0.22061966
0.068983726 -0.24653211 0.111399055 0.14487329 0.030341774 -0.10346846 0.36061585 0.17242776
-0.17182167 -0.08848102 -0.2825092 0.44853598 -0.43144038 0.18226114 0.30186522 -0.35549718
-0.0008261036 -0.33869272 0.06493561 -0.18567002 0.34419993 0.2623696 0.016955163 0.14207762
-0.054340675 0.20580421 -0.06164651 -0.3234789 0.29325345 -0.23274457 0.20439422 -0.22093922
0.41500625 -0.5408084 -0.11128997 -0.66157895 -0.0015709238 -0.024866093 -0.0020411154 0.07240121
-0.0357941 0.10203214 0.36327156 -0.5063437 -0.1264304 0.084983274 -0.18248013 -0.22959203
0.027019627 0.17507917 -0.23991309 -0.33005518 0.22329333 0.31548434 0.2978896 0.009220802
0.037689913 0.020456132 -0.31927183 -0.16988012 0.3100486 0.36080483 0.36440876 0.25080314
0.26903117 -0.319161 -0.1532369 -0.25079173 -0.22924797 -0.26730898 -0.3374965 -0.28020078
-0.10178291 0.38112858 -0.28164208 0.1596079 -0.17278576 0.1649927 -0.11257585 0.23999366
-0.016434098 0.042013887 0.039179318 -0.094801225 -0.49346617 0.70124334 0.23432793 -0.10362562
-0.11326085 0.050642483 -0.02066019 -0.03834753 -0.25982496 -0.30416682 -0.03972001 -0.23257278
-0.11580851 0.27166587 0.41137192 0.2620886 0.27348116 0.021128513 -0.13150519 0.27902338
0.26261953 0.30678448 0.05142327 0.2804245 -0.14398758 -0.15061773 0.23442282 0.053874344
-0.0042388984 -0.26239994 0.06852465 0.14136663 0.11199858 -0.24401422 -0.011773139 0.21917683
-0.12162887 0.36846107 0.18383862 0.33243963 -0.16232121 0.21576545 -0.34907877 -0.18824945
-0.16263129 0.32319537 0.38185325 0.22211581 -0.32332817 -0.34228697 0.15562123 -0.01496542
0.41010323 -0.55521584 0.059964497 0.3114983 -0.106677525 -0.23263238 0.09868909 -0.036481176
0.08532384 -0.13868561 -0.0076192156 0.033234768 0.39274663 -0.7255619 0.03723741 0.05564509
0.1813663 -0.043600906 -0.2424907 0.0726897 0.6690001 -0.16698639 -0.44590172 0.3261284

model.6.bias f4 [2]
00000000: 68f4 ddbd 93e3 d03b
-0.108376324 0.006374785
